FileCode_NhanDang/hand_gesture_dataset/output_data/models/models_tflite/hand_gesture_model_new.tflite (tflite, 142132 bytes, 17 tensors)

sequential/dense/MatMul;sequential/dense/Relu;sequential/dense/BiasAdd f2 [32]
-0.04648 0.05902 0.02745 0.05127 0.006313 -0.02527 0.0696 0.01084
0.02438 0.02248 0.0359 -0.05896 0.02563 0.05746 0.00814 0.04688
0.00257 0.0818 0.04083 0.02753 0.02219 0.056 0.06168 -0.03217
-0.07117 0.01698 0.0314 0.05627 -0.001011 0.01416 0.02293 -0.05878
00000000: f3a9 8e2b 0727 902a 771e 78a6 742c 8d21
00000010: 3e26 c125 9828 8cab 9026 5b2b 2b20 002a
00000020: 4319 3c2d 3a29 0c27 ae25 2b2b e52b 1ea8
00000030: 8eac 5924 0528 342b 2494 4023 df25 86ab

sequential/layer_normalization_2/mul;sequential/layer_normalization_2/add;sequential/dense/MatMul;sequential/dense/Relu;sequential/dense/BiasAdd f2 [32, 16]
-0.0002966 0.0048 -0.0193 -0.01318 0.01671 -0.01543 -0.0208 0.00878
0.01735 0.0137 -0.01843 -0.03488 0.01061 -0.02658 -0.0225 -0.01772
0.004585 0.0338 0.00647 0.001765 -0.007336 -0.0014715 -0.03326 0.0047
0.00286 0.01614 0.013824 0.00951 0.011185 -0.013565 -0.0416 -0.00797
-0.02011 -0.004665 -0.0338 -0.01944 0.02972 0.01744 0.011505 0.005978
0.00584 0.0037 0.004738 0.00093 0.003036 0.003654 0.02544 0.02855
0.01229 -0.001706 0.006527 -0.003736 -0.0087 0.01385 0.00966 -0.006744
0.0179 -0.02061 0.00883 -0.02434 -0.01955 0.0002037 0.01059 -0.00404
-0.012405 -0.001499 -0.02443 -0.00893 0.01656 -0.01593 -0.000412 0.02243
0.002075 0.02206 -0.02654 0.001401 0.01823 0.001634 -0.00945 -0.005085
0.01013 -0.02904 0.02034 0.01602 -0.01439 -0.00983 0.012405 -0.01164
0.007565 -0.013985 -0.02216 -0.02237 -0.0112 -0.00491 0.02248 -0.01501
0.0168 -0.00973 -0.0002775 0.000777 -0.008026 0.02226 0.01805 -0.006996
0.006367 -0.02269 0.00716 -0.0118 -0.02042 0.004192 0.0112 -0.00449
-0.0245 -0.006138 -0.02245 -0.0171 0.0213 0.01785 0.014565 0.0002192
-0.002638 0.001211 0.003601 -0.001643 -0.00669 0.01108 0.02295 0.0326
0.01264 0.008835 -0.00892 -0.005848 -0.00225 0.01236 -0.006996 0.02228
0.014336 0.008736 0.004143 -0.00312 -0.000275 0.01151 -0.02112 -0.02094
-0.01837 -0.004623 0.00688 0.003723 -0.005806 -0.01718 0.002405 -0.00871
-0.02759 0.01779 -0.0008698 0.04343 0.01439 0.01994 0.0002 0.02821
-0.004204 0.004566 0.03192 0.02097 -0.0247 -0.01674 0.002083 -0.01675
-0.001077 -0.0144 0.007614 0.0084 -0.000849 -0.01057 -0.007717 -0.0006742
-0.02051 0.01139 -0.01207 -0.01859 0.01837 0.01804 0.004128 -0.01683
0.01081 -0.00479 0.02574 -0.02469 -0.01166 -0.01808 0.010506 0.0222
-0.00476 -0.01121 -0.02255 -0.01306 0.01813 -0.005394 -0.008545 0.01539
0.00314 0.0127 -0.02158 -0.01182 0.014626 -0.001243 0.003033 -0.002312
0.006397 -0.003674 -0.01753 0.002369 0.01625 2.074e-05 0.01212 -0.01768
0.01526 0.001202 -0.014465 -0.05313 0.0007772 -0.0369 0.007042 0.00399
0.0161 0.00941 -0.00734 -0.005775 0.001085 0.0133 -0.01697 0.0291
0.01987 0.0008073 -0.00297 -0.008575 0.00619 0.013916 -0.02422 -0.02534
-0.02042 0.00556 -0.00527 -0.003006 0.005005 -0.002686 0.004353 -0.02104
-0.013145 0.009384 0.008736 0.0173 0.01067 -0.00812 -0.003273 0.0345
00000000: dc8c ea1c f1a4 c0a2 4724 e6a3 53a5 7f20
00000010: 7124 0423 b8a4 77a8 6f21 cea6 c3a5 89a4
00000020: b21c 5428 a01e 3b17 839f 0796 42a8 d01c
00000030: db19 2224 1423 de20 ba21 f2a2 53a9 15a0
00000040: 26a5 c79c 54a8 faa4 9c27 7724 e421 1f1e
00000050: fb1d 941b da1c 9e13 381a 7c1b 8326 4f27
00000060: 4b22 fd96 af1e a79b 74a0 1723 f220 e89e
00000070: 9524 47a5 8520 3ba6 01a5 ad0a 6c21 239c
00000080: 5aa2 2496 41a6 92a0 3d24 14a4 c08e be25
00000090: 4018 a625 cba6 bd15 ab24 b116 d7a0 359d
000000a0: 3021 6fa7 3525 1a24 5ea3 08a1 5a22 f6a1
000000b0: bf1f 29a3 aca5 baa5 bca1 079d c125 afa3
000000c0: 4d24 fba0 8c8c 5d12 1ca0 b325 9f24 2a9f
000000d0: 851e cfa5 551f 0ba2 3aa5 4b1c bc21 999c
000000e0: 46a6 499e bfa5 61a4 7425 9224 7523 2f0b
000000f0: 6799 f614 601b bb96 da9e ac21 e025 2c28
00000100: 7922 8620 91a0 fd9d 9c98 5422 2a9f b425
00000110: 5723 7920 3e1c 649a 818c e521 68a5 5ca5
00000120: b4a4 bc9c 0c1f a01b f29d 66a4 ed18 76a0
00000130: 10a7 8e24 2093 8f29 5e23 1b25 8e0a 3927
00000140: 4e9c ad1c 1628 5e25 53a6 49a4 4418 4aa4
00000150: 6994 5fa3 cc1f 4d20 f492 69a1 e79f 8691
00000160: 40a5 d521 2ea2 c2a4 b424 9e24 3a1c 4fa4
00000170: 8921 e89c 9726 52a6 f8a1 a1a4 6121 af25
00000180: e09c bda1 c6a5 b0a2 a424 869d 60a0 e123
00000190: 6e1a 8122 86a5 0da2 7d23 1795 361a bc98
000001a0: 8d1e 869b 7da4 da18 2924 5c01 3522 87a4
000001b0: d023 ec14 68a3 cdaa 5e12 b9a8 361f 161c
000001c0: 1f24 d120 849f ea9d 7214 cf22 58a4 7327
000001d0: 1625 9d12 159a 64a0 571e 2023 33a6 7da6
000001e0: 3aa5 b21d 659d 289a 201d 8099 751c 63a5
000001f0: bba2 ce20 7920 6e24 7721 28a0 b49a 6a28

sequential/dense_1/MatMul;sequential/dense_1/BiasAdd f2 [6]
-0.2319 0.283 0.1858 0.0539 0.1167 0.1672
00000000: 6cb3 8734 f231 e62a 782f 5a31

sequential/layer_normalization_3/mul;sequential/layer_normalization_3/add;sequential/dense_1/MatMul;sequential/dense_1/BiasAdd f2 [6, 32]
-0.3296 -0.379 -0.6685 0.4204 -0.3997 0.915 0.6074 -0.2566
-0.1235 -0.328 0.4817 -0.3862 -0.332 0.02487 0.00345 -0.5728
-0.6304 0.05954 -0.2642 0.858 -0.545 -0.5967 0.525 -0.08856
-0.2056 -0.2211 0.7446 -0.1307 -0.3828 -0.4407 0.603 -0.1472
-0.304 -0.4055 0.2776 0.3953 -0.5225 -0.1505 0.422 0.6675
-0.1278 -0.1852 -0.4163 0.6323 -0.2432 0.3079 -0.3882 -0.1345
-0.503 -0.4646 0.007195 -0.2908 0.0854 0.2441 0.1472 0.5776
-0.3376 -0.555 -0.1315 0.286 0.533 -0.448 -0.2888 -0.565
-0.298 0.548 -0.7256 0.587 -0.317 -0.296 0.4224 -0.05057
0.6436 -0.2332 0.1755 -0.2457 -0.3872 -0.765 0.7354 -0.543
0.6577 -0.00963 0.7285 -0.4521 0.54 0.5337 -0.0818 0.08466
-0.2184 -0.2408 -0.267 0.1713 -0.4937 -0.0924 -0.5005 0.799
0.76 0.5347 -0.2135 -0.3235 0.604 -0.2126 -0.4714 -0.5225
0.497 -0.5547 -0.521 -0.0681 0.5933 0.2864 0.517 -0.2773
0.187 0.12164 0.2656 0.2365 -0.4995 -0.2115 -0.505 -0.492
-0.5454 -0.348 -0.3662 0.527 -0.1104 0.5044 0.5186 -0.4534
0.00886 0.5264 -0.6177 -0.542 -0.2174 -0.3604 -0.6567 -0.5107
-0.1737 0.5283 0.6606 -0.3508 -0.3757 -0.3225 -0.389 0.362
-0.4346 -0.698 -0.162 -0.213 0.661 -0.3738 0.01828 -0.3628
-0.463 0.597 0.549 0.609 -0.1271 -0.1566 -0.1964 -0.1871
-0.358 -0.814 0.4385 -0.6367 0.3882 -0.3184 -0.4001 0.303
-0.256 0.553 -0.3684 -0.2634 0.233 -0.267 -0.577 0.25
-0.4307 0.1044 0.5347 -0.1797 -0.2368 0.52 0.6333 -0.3884
0.8 0.3494 -0.3118 -0.306 -0.429 0.4683 0.0918 -0.3545
00000000: 46b5 10b6 59b9 ba36 65b6 523b dc38 1bb4
00000010: e7af 3fb5 b537 2eb6 50b5 5e26 111b 95b8
00000020: 0bb9 9f2b 3ab4 dd3a 5cb8 c6b8 3338 abad
00000030: 94b2 13b3 f539 2fb0 20b6 0db7 d338 b6b0
00000040: ddb4 7db6 7134 5336 2eb8 d1b0 c136 5739
00000050: 17b0 edb1 a9b6 0f39 c8b3 ed34 36b6 4eb0
00000060: 06b8 6fb7 5e1f a7b4 772d d033 b630 9f38
00000070: 67b5 71b8 35b0 9334 4438 2bb7 9fb4 85b8
00000080: c5b4 6238 ceb9 b238 12b5 bcb4 c236 79aa
00000090: 2639 76b3 9e31 ddb3 32b6 1fba e239 58b8
000000a0: 4339 eea0 d439 3cb7 5238 4538 3cad 6b2d
000000b0: fdb2 b5b3 46b4 7b31 e6b7 eaad 01b8 643a
000000c0: 143a 4738 d5b2 2db5 d538 ceb2 8bb7 2eb8
000000d0: f437 70b8 2bb8 5cac bf38 9534 2338 70b4
000000e0: fc31 c92f 4034 9133 feb7 c5b2 0ab8 dfb7
000000f0: 5db8 91b5 dcb5 3738 11af 0938 2638 41b7
00000100: 8920 3638 f1b8 56b8 f5b2 c4b5 41b9 16b8
00000110: 8fb1 3a38 4939 9db5 03b6 29b5 39b6 cb35
00000120: f4b6 96b9 2fb1 d1b2 4a39 fbb5 ae24 ceb5
00000130: 68b7 c738 6438 df38 11b0 03b1 49b2 fdb1
00000140: bab5 83ba 0437 18b9 3636 18b5 67b6 d934
00000150: 19b4 6d38 e5b5 37b4 7533 46b4 9eb8 0034
00000160: e4b6 ae2e 4738 c0b1 94b3 2938 1139 37b6
00000170: 663a 9735 fdb4 e5b4 ddb6 7e37 e02d acb5

sequential/lstm/Read_2/ReadVariableOp f2 [256]
0.1328 -0.1667 -0.11707 0.1416 0.1265 -0.0797 0.011185 0.05548
-0.01627 0.11993 -0.215 -0.202 -0.1932 -0.2161 0.03186 -0.1659
-0.0638 -0.1848 -0.0739 -0.193 0.1219 0.1058 -0.045 -0.10254
-0.07837 -0.2126 -0.2147 -0.07367 -0.155 -0.03534 0.01971 -0.1763
-0.234 -0.184 0.0301 -0.01799 0.02916 -0.1364 0.1431 -0.181
-0.02231 -0.1208 0.1203 0.05106 -0.1462 0.07135 0.0753 0.04996
-0.144 0.12476 0.1403 -0.1677 -0.1048 -0.0909 -0.1981 0.013145
-0.004204 -0.1733 0.09296 -0.0674 -0.0546 -0.1881 0.0684 -0.217
1.004 0.8276 0.8545 1.037 1.068 0.893 0.9233 0.955
0.9233 1.0625 0.7515 0.757 0.7983 0.7695 0.908 0.794
0.8745 0.781 0.858 0.776 1.021 1.003 0.8877 0.856
0.8604 0.755 0.7686 0.847 0.812 0.898 0.947 0.795
0.766 0.792 0.9517 0.882 0.9204 0.8115 1.037 0.787
0.887 0.8433 1.003 0.98 0.8164 1.004 0.9453 0.971
0.811 0.971 0.9683 0.812 0.8604 0.8745 0.786 0.9556
0.8926 0.7847 1.029 0.882 0.8833 0.779 0.995 0.7554
0.0286 0.00953 -0.01214 -0.02031 0.01176 -0.01575 -0.003147 -0.01955
0.002062 -0.01123 -0.011566 -0.006836 -0.00904 -0.001544 0.004494 0.007812
-0.000618 0.00574 0.004696 0.00917 0.004944 -0.005627 -0.0467 -0.01324
-0.006798 -0.00499 -0.002686 -0.002476 -0.014755 0.01092 -0.007095 -0.0008073
-0.001099 -0.02774 0.00229 0.01575 -0.02983 -0.003185 0.02293 0.00778
-0.005726 0.02156 0.01012 -0.009346 -0.0449 0.00725 -0.01019 -0.01242
0.03568 -0.00605 0.00993 -0.00832 0.004997 0.01466 0.005417 -0.01269
-0.002798 0.01868 0.04538 -0.006145 -0.001392 0.00555 0.01044 0.01805
0.1339 -0.1661 -0.12115 0.1395 0.1267 -0.0798 0.014626 0.0566
-0.01446 0.1179 -0.2169 -0.2037 -0.1958 -0.215 0.03072 -0.168
-0.06396 -0.1833 -0.0747 -0.1951 0.1204 0.1063 -0.04025 -0.10266
-0.07806 -0.2114 -0.2119 -0.075 -0.1527 -0.03412 0.0204 -0.176
-0.2343 -0.1826 0.03023 -0.0166 0.02332 -0.1372 0.1411 -0.1813
-0.02225 -0.1231 0.1137 0.04965 -0.1482 0.0691 0.0755 0.04996
-0.1362 0.12177 0.1421 -0.1688 -0.10767 -0.09174 -0.1992 0.00934
-0.00405 -0.1694 0.0885 -0.0663 -0.05594 -0.1873 0.0653 -0.2163
00000000: 4030 56b1 7eaf 8830 0c30 1aad ba21 1a2b
00000010: 2aa4 ad2f e1b2 77b2 2fb2 eab2 1428 4fb1
00000020: 15ac eab1 bbac 2db2 cd2f c52e c3a9 90ae
00000030: 04ad ceb2 dfb2 b7ac f6b0 86a8 0c25 a4b1
00000040: 7db3 e3b1 b527 9ba4 7727 5db0 9430 cbb1
00000050: b6a5 bbaf b32f 892a aeb0 912c d22c 652a
00000060: 9cb0 fc2f 7d30 5eb1 b5ae d1ad 57b2 bb22
00000070: 4e9c 8cb1 f32d 50ac fdaa 05b2 612c f2b2
00000080: 043c 9f3a d63a 263c 463c 253b 633b a43b
00000090: 633b 403c 033a 0e3a 633a 283a 443b 5a3a
000000a0: ff3a 3f3a dd3a 353a 163c 033c 1a3b d93a
000000b0: e23a 0a3a 263a c73a 7f3a 2f3b 933b 5c3a
000000c0: 213a 563a 9d3b 0e3b 5d3b 7e3a 263c 4c3a
000000d0: 193b bf3a 033c d73b 883a 043c 903b c53b
000000e0: 7d3a c53b bf3b 7f3a e23a ff3a 4a3a a53b
000000f0: 243b 473a 1e3c 0e3b 113b 3b3a f63b 0b3a
00000100: 5227 e120 37a2 33a5 0522 08a4 729a 01a5
00000110: 3918 c0a1 eca1 009f a1a0 5396 9a1c 0020
00000120: 1091 e11d cf1c b220 101d c39d faa9 c7a2
00000130: f69e 1c9d 8099 1299 8ea3 9721 449f 9d92
00000140: 8094 1aa7 b118 0824 a3a7 869a df25 f71f
00000150: dd9d 8525 2e21 c9a0 bfa9 6d1f 38a1 5ca2
00000160: 9128 329e 1621 43a0 1e1d 8223 8c1d 7fa2
00000170: bb99 c824 cf29 4b9e b495 af1d 5821 9f24
00000180: 4930 51b1 c1af 7730 0e30 1bad 7d23 3f2b
00000190: 67a3 8c2f f1b2 85b2 44b2 e1b2 dd27 60b1
000001a0: 18ac deb1 c8ac 3eb2 b52f ce2e 27a9 92ae
000001b0: ffac c4b2 c8b2 cdac e3b0 5ea8 3925 a2b1
000001c0: 7fb3 d8b1 bd27 40a4 f825 64b0 8430 cdb1
000001d0: b2a5 e1af 472f 5b2a beb0 6c2c d52c 652a
000001e0: 5cb0 cb2f 8c30 67b1 e4ae dfad 60b2 c820
000001f0: 269c 6cb1 aa2d 3eac 29ab feb1 2e2c ecb2

sequential/lstm_2/Read_2/ReadVariableOp f2 [64]
0.0808 0.0209 0.0345 0.1437 -0.0604 0.02365 -0.02948 0.0274
0.01352 0.0373 -0.02975 -0.04703 0.03702 -0.04468 -0.0616 -0.02678
0.954 0.9204 0.9014 1.012 0.8467 0.926 0.8545 0.922
0.9014 0.9575 0.8853 0.9043 0.956 0.8975 0.885 0.8916
0.01072 0.004753 -0.0006847 0.000844 -0.01604 -0.02882 0.0314 0.004875
0.05353 -0.0183 -0.03723 0.0414 0.00999 0.03946 -0.005383 -0.00391
0.0505 -0.0158 0.014946 0.1449 -0.02309 0.01227 -0.05844 0.02771
0.0321 0.02762 -0.05463 -0.05228 0.00401 -0.04758 -0.05933 0.0007067
00000000: 2c2d 5a25 6a28 9930 bbab 0e26 8ca7 0427
00000010: ec22 c628 9ea7 05aa bd28 b8a9 e3ab dba6
00000020: a23b 5d3b 363b 0c3c c63a 683b d63a 603b
00000030: 363b a93b 153b 3c3b a63b 2e3b 143b 223b
00000040: 7d21 de1c 9c91 ea12 1ba4 61a7 0528 fe1c
00000050: da2a afa4 c4a8 4d29 1d21 0d29 839d 019c
00000060: 772a 0ba4 a723 a330 e9a5 4822 7bab 1827
00000070: 1c28 1227 feaa b1aa 1b1c 17aa 98ab ca11

sequential/lstm_1/Read_2/ReadVariableOp f2 [128]
0.03842 0.06192 0.05807 -0.0396 -0.01935 0.0341 0.0629 0.02742
-0.02121 0.04016 0.003317 0.02463 -0.01918 -0.02422 0.0466 0.0784
-0.01216 0.05167 -0.02122 -0.010605 0.02357 0.005455 -0.03098 0.0709
0.0536 0.04346 0.04318 -0.049 0.06168 0.0512 -0.0341 -0.01593
0.965 0.9365 0.897 0.887 0.9204 0.896 0.9136 0.813
0.9067 0.9062 0.8833 0.936 0.884 0.9185 0.923 0.8613
0.931 0.9346 0.8794 0.914 0.8745 0.9126 0.887 0.9146
0.8486 0.8706 0.941 0.908 0.942 0.9478 0.894 0.899
0.06946 0.004017 0.01299 0.005207 0.01433 0.001241 0.02051 -0.004444
-0.03207 -0.003796 0.01241 -0.012245 -0.003117 0.013336 -0.02094 0.038
0.00723 -0.03406 0.0006423 -0.00932 0.007015 0.001036 0.0233 -0.05585
-0.000675 -0.03848 0.00609 0.0443 0.01631 0.00252 0.005062 0.0007715
0.006607 0.07404 0.0471 -0.04492 -0.01796 0.02356 0.0491 0.013245
-0.012115 0.01406 -0.02158 0.0191 -0.02225 -0.02188 0.03394 0.009346
-0.02347 0.0482 -0.03662 -0.004673 0.02057 -0.00518 -0.05554 0.0509
0.03418 0.03217 0.02763 -0.04742 0.04703 0.05573 -0.04327 -0.012535
00000000: eb28 ed2b 6f2b 12a9 f4a4 5d28 072c 0527
00000010: 6ea5 2429 cb1a 4e26 e9a4 33a6 f729 052d
00000020: 3aa2 9d2a 6fa5 6ea1 0926 961d eea7 8a2c
00000030: dc2a 9029 8729 46aa e52b 8e2a 5da8 14a4
00000040: b83b 7e3b 2d3b 193b 5d3b 2b3b 4f3b 813a
00000050: 413b 403b 113b 7d3b 123b 593b 623b e43a
00000060: 733b 7a3b 093b 503b ff3a 4d3b 193b 513b
00000070: ca3a f73a 873b 443b 893b 953b 273b 313b
00000080: 722c 1d1c a722 551d 5623 1515 4025 8d9c
00000090: 1ba8 c69b 5b22 45a2 629a d422 5ca5 dd28
000000a0: 671f 5ca8 4311 c6a0 2f1f 3e14 f725 26ab
000000b0: 8891 eda8 3c1e ac29 2d24 2919 2f1d 5212
000000c0: c41e bd2c 072a c0a9 99a4 0826 492a c822
000000d0: 34a2 3323 86a5 e424 b2a5 9aa5 5828 c920
000000e0: 02a6 2b2a b0a8 c99c 4425 4e9d 1cab 842a
000000f0: 6028 1e28 1327 12aa 052a 222b 8aa9 6ba2

sequential/layer_normalization/mul/ReadVariableOp f2 [64]
1.122 0.87 0.9097 1.156 1.14 0.9507 1.015 1.054
0.982 1.101 0.838 0.806 0.861 0.7974 1.042 0.8545
0.9517 0.8604 0.927 0.8877 1.1045 1.135 0.965 0.8896
0.9053 0.837 0.8154 0.929 0.876 0.96 1.014 0.883
0.852 0.842 1.019 0.982 1.023 0.904 1.128 0.892
0.9834 0.8813 1.126 1.04 0.8936 1.076 1.096 1.046
0.913 1.117 1.141 0.905 0.9272 0.933 0.86 0.992
0.989 0.908 1.069 0.9194 0.9424 0.8716 1.059 0.81
00000000: 7d3c f63a 473b a03c 8f3c 9b3b 0f3c 373c
00000010: db3b 673c b43a 733a e33a 613a 2b3c d63a
00000020: 9d3b e23a 6a3b 1a3b 6b3c 8a3c b83b 1e3b
00000030: 3e3b b23a 863a 6f3b 023b ae3b 0e3c 103b
00000040: d13a bc3a 133c db3b 183c 3b3b 833c 233b
00000050: de3b 0d3b 813c 293c 263b 4e3c 623c 2f3c
00000060: 4e3b 783c 903c 3d3b 6b3b 773b e13a f03b
00000070: e93b 443b 473c 5b3b 8a3b f93a 3c3c 7b3a

sequential/layer_normalization/add/ReadVariableOp f2 [64]
0.02003 -0.01353 -0.01198 -0.012245 0.015366 -0.0162 -0.00794 -0.02888
-0.02588 -0.01855 -0.013084 -0.04034 -0.004196 0.01028 -0.002752 0.004574
0.00612 -0.01518 0.002203 0.0177 0.01397 -0.02502 -0.01704 -0.02014
0.00457 0.01415 -0.01971 -0.01074 0.0007486 0.01216 -0.013336 0.01178
0.011765 -0.013664 0.01548 -0.00867 -0.001292 0.0159 -0.000386 0.01991
-0.007755 -0.01462 0.002825 0.01685 -0.02753 0.01033 -0.01813 -0.007515
0.01717 0.00885 0.02267 -0.02902 -0.002495 0.00269 -0.01678 0.001737
-0.005646 -0.0213 0.03528 -0.01412 0.0009484 -0.009796 -0.002773 0.0171
00000000: 2125 eda2 22a2 45a2 de23 26a4 11a0 65a7
00000010: a0a6 c0a4 b3a2 2aa9 4c9c 4321 a399 af1c
00000020: 441e c6a3 8318 8824 2723 68a6 5da4 28a5
00000030: ae1c 3f23 0ca5 80a1 2212 3a22 d4a2 0822
00000040: 0622 ffa2 ed23 70a0 4b95 1224 538e 1925
00000050: f19f 7ca3 c919 5024 0ca7 4a21 a4a4 b29f
00000060: 6524 8820 ce25 6ea7 1c99 8219 4ca4 1d17
00000070: c89d 74a5 8428 3ba3 c513 04a1 ae99 6124

sequential/layer_normalization_1/mul/ReadVariableOp f2 [32]
1.09 1.097 1.057 1.0 0.9585 1.035 1.068 1.007
0.996 1.063 1.024 1.055 1.025 0.978 1.0 1.074
0.9736 1.077 0.9575 1.037 1.068 1.008 0.9453 1.093
1.074 1.057 1.057 0.9663 1.017 1.074 0.9155 1.007
00000000: 5c3c 633c 3a3c 003c ab3b 243c 463c 073c
00000010: f83b 413c 193c 383c 1a3c d33b 003c 4c3c
00000020: ca3b 4f3c a93b 263c 463c 083c 903b 5f3c
00000030: 4c3c 3a3c 3a3c bb3b 113c 4c3c 533b 073c

sequential/layer_normalization_1/add/ReadVariableOp f2 [32]
-0.02763 -0.02287 0.03555 -0.02567 0.03897 -0.00848 -0.071 -0.003527
-0.01134 -0.0341 0.01785 0.02824 0.02516 -0.002272 0.0221 0.02455
0.0099 -0.02687 -0.0189 -0.005066 -0.01514 -0.02832 -0.02965 0.02112
0.03186 -0.02495 -0.01872 -0.007755 0.04672 0.001365 0.013954 -0.00772
00000000: 13a7 dba5 8d28 92a6 fd28 57a0 8bac 399b
00000010: cea1 5da8 9224 3b27 7126 a798 a825 4926
00000020: 1221 e1a6 d7a4 309d c0a3 40a7 97a7 6825
00000030: 1428 63a6 cba4 f19f fb29 9715 2523 e89f

while/MatMul_1 f2 [256, 64]
-0.1322 -0.01886 -0.001169 -0.04337 0.2382 -0.08795 0.1827 0.05173
0.1296 0.00627 0.00905 0.03096 0.1328 -0.009964 0.1652 -0.00821
-0.1033 0.1095 0.1909 -0.01883 0.05032 -0.04077 -0.01126 -0.02936
-0.03497 -0.02875 0.10956 0.1311 -0.10126 0.07477 -0.162 -0.00855
0.0673 0.1704 -0.0504 0.1123 -0.2263 0.07135 -0.1221 -0.0704
0.165 -0.2319 0.0565 0.02365 -0.0084 0.09796 -0.1555 -0.08844
-0.03073 0.0481 -0.0648 0.12164 -0.04666 0.0791 0.1203 0.1841
0.03165 0.1921 0.0667 0.0424 -0.0247 -0.04703 0.12463 0.0243
0.1309 -0.01033 -0.06015 -0.1102 0.01903 0.04675 -0.09393 -0.09406
0.04022 -0.1516 -0.058 -0.02179 -0.0787 0.04846 -0.07434 -0.01994
-0.1226 -0.07196 -0.10236 -0.00557 -0.06824 0.012955 -0.03705 -0.1285
-0.2385 -0.086 -0.05692 0.0111 -0.04874 -0.155 0.0726 -0.0512
-0.109 -0.04434 0.05917 -0.01252 -0.0316 -0.02266 -0.006786 -0.0173
-0.02513 0.02391 0.086 0.087 -0.09216 0.05426 -0.0939 0.0862
0.01376 -0.01107 0.05048 -0.1443 -0.072 -0.02104 -0.001799 -0.0312
-0.01477 0.02254 0.06885 0.01895 0.04105 -0.0703 0.05276 -0.0905
0.03186 -0.04736 -0.1333 -0.01965 -0.07 -0.06168 -0.088 0.0752
0.03152 0.003664 -0.05576 -0.03102 -0.1552 0.05164 -0.02956 -0.0818
0.1487 -0.007168 -0.005737 0.1306 0.02933 -0.04102 0.1407 -0.0605
-0.0877 -0.10895 -0.02367 -0.1342 0.05087 -0.004803 -0.02898 -0.06757
-0.02101 0.0967 -0.0986 -0.0176 0.02821 0.0709 -0.00793 -0.001845
0.11066 -0.0436 -0.01735 -0.01089 -0.0868 0.0386 0.03107 -0.0195
-0.01134 0.131 -0.03696 -0.03607 -0.01421 0.0119 -0.1068 -0.03238
-0.0906 0.0478 0.001993 -0.02147 -0.00955 -0.05798 0.05856 0.0485
0.0921 0.05032 0.1009 -0.06714 0.1595 0.1065 0.05753 -0.06226
-0.01489 0.05002 0.1321 0.04877 -0.003983 -0.007507 -0.1387 0.10376
0.0513 0.11206 0.05127 -0.01859 -0.04248 -0.0756 -0.12384 0.081
0.07275 0.0495 0.0864 0.003994 0.0564 0.03134 0.07117 0.01211
-0.07697 0.01534 0.1807 0.217 -0.1926 0.0693 0.0012045 0.0935
0.05215 0.005634 -0.03668 -0.1224 -0.001151 -0.087 0.01334 0.1282
-0.0302 0.1453 0.06506 0.01377 -0.010506 0.2213 0.04517 0.1643
0.09955 0.0658 0.09 0.04883 -0.1488 0.005527 0.2683 0.05804
00000000: 3bb0 d4a4 ca94 8da9 9f33 a1ad d931 9f2a
00000010: 2630 6c1e a220 ed27 4030 1aa1 4931 34a0
00000020: 9cae 022f 1c32 d2a4 712a 38a9 c4a1 84a7
00000030: 7aa8 5ca7 032f 3230 7bae c92c 2fb1 61a0
00000040: 4f2c 7431 74aa 302f 3eb3 912c d0af 81ac
00000050: 4831 6cb3 3b2b 0e26 4da0 452e fab0 a9ad
00000060: dea7 282a 26ac c92f f9a9 102d b32f e431
00000070: 0d28 2632 452c 6d29 53a6 05aa fa2f 3926
00000080: 3030 4aa1 b3ab 0eaf df24 fc29 03ae 05ae
00000090: 2629 dab0 6dab 94a5 09ad 342a c2ac 1ba5
000000a0: d9af 9bac 8dae b49d 5eac a222 bea8 1db0
000000b0: a2b3 81ad 49ab af21 3daa f6b0 a52c 8eaa
000000c0: faae ada9 932b 69a2 0ba8 cda5 f39e 6ea4
000000d0: 6fa6 1f26 812d 912d e6ad f22a 02ae 842d
000000e0: 0c23 aba1 762a 9eb0 9cac 63a5 5e97 fda7
000000f0: 90a3 c525 682c da24 4129 80ac c12a cbad
00000100: 1428 10aa 44b0 08a5 7bac e5ab a2ad d02c
00000110: 0928 811b 23ab f1a7 f7b0 9c2a 91a7 3cad
00000120: c230 579f e09d 2e30 8227 40a9 8130 beab
00000130: 9dad f9ae 0fa6 4bb0 832a eb9c 6ba7 53ac
00000140: 61a5 302e 4fae 81a4 3927 8a2c 0fa0 8f97
00000150: 152f 95a9 71a4 93a1 8ead f128 f427 fea4
00000160: cea1 3130 bba8 9ea8 47a3 1822 d6ae 25a8
00000170: ccad 1e2a 1518 7fa5 e4a0 6cab 7f2b 352a
00000180: e52d 712a 752e 4cac 1b31 d12e 5d2b f8ab
00000190: a0a3 672a 3a30 3e2a 149c b09f 70b0 a42e
000001a0: 912a 2c2f 902a c2a4 70a9 d7ac edaf 2f2d
000001b0: a82c 562a 882d 171c 382b 0328 8e2c 3322
000001c0: edac db23 c831 f232 2ab2 6f2c ef14 fc2d
000001d0: ad2a c51d b2a8 d5af b794 91ad d522 1a30
000001e0: bba7 a630 2a2c 0d23 61a1 1533 c829 4231
000001f0: 5f2e 362c c32d 402a c3b0 a91d 4b34 6e2b

while/MatMul f2 [256, 63]
0.006805 0.00504 0.004208 0.00664 0.00482 0.005817 0.00643 0.004944
0.00613 0.00636 0.00525 0.006317 0.00602 0.00548 0.006588 0.006374
0.004726 0.007553 0.006424 0.004498 0.007416 0.006325 0.004303 0.00712
0.006214 0.004658 0.007126 0.006573 0.004593 0.0079 0.006493 0.004364
0.007484 0.006268 0.004597 0.007576 0.006046 0.00485 0.00773 0.006454
0.0046 0.00786 0.00638 0.004486 0.007725 0.006367 0.004395 0.00783
0.006325 0.004696 0.007996 0.006268 0.004642 0.007812 0.00627 0.004368
0.00784 0.00618 0.004143 0.00802 0.006214 0.004276 0.00818 -9.865e-05
-8.72e-05 -0.0001476 -8.935e-05 -8.595e-05 -0.0001227 -9.76e-05 -8.75e-05 -0.0001456
-0.00011337 -9.16e-05 -0.000154 -0.0001278 -8.57e-05 -0.0001624 -9.87e-05 -0.00010616
-0.0001702 -0.0001023 -9.53e-05 -0.0001857 -0.00010455 -8.327e-05 -0.000192 -0.0001085
-9.435e-05 -0.0001934 -0.0001205 -0.00010246 -0.0001835 -0.0001334 -8.005e-05 -0.0001906
-0.0001438 -5.794e-05 -0.0001795 -0.0001547 -6.19e-05 -0.0001744 -0.0001371 -0.0001
-0.0001932 -0.0001364 -6.455e-05 -0.0001769 -0.0001248 -5.823e-05 -0.0001584 -0.0001214
-6.32e-05 -0.0001513 -0.0001454 -9.61e-05 -0.0001934 -0.0001392 -6.34e-05 -0.0001737
-0.0001311 -5.51e-05 -0.0001636 -0.000126 -5.996e-05 -0.0001569 -1.4e-06 1.84e-05
3.46e-05 1.6e-06 2.486e-05 2.724e-05 2.4e-06 2.78e-05 1.11e-05 -4e-06
2.635e-05 -4.53e-06 6.6e-07 2.06e-05 -2.706e-05 -9.5e-07 2.44e-05 -6.74e-06
-1.365e-05 4.57e-05 -1.4e-05 -1.89e-05 5.01e-05 -1.25e-05 -1.806e-05 5.02e-05
-1.884e-05 -1.61e-05 2.384e-05 -1.645e-05 -1.53e-05 4.023e-05 -4.53e-06 -7.33e-06
4.64e-05 -2.76e-05 -1.7e-06 4.68e-05 -3.904e-05 -1.22e-05 2.14e-05 -1.34e-05
-1.22e-05 2.31e-05 -2.843e-05 -9.4e-06 3.064e-05 -3.93e-05 -7.15e-06 1.65e-05
-3.874e-05 -7.03e-06 1.7e-05 -3e-05 -7.2e-06 1.86e-05 -2.47e-05 -1.9e-06
2.81e-05 -2.223e-05 -3e-07 2.396e-05 -1.97e-05 -0.0001225 7.37e-05 -0.0001743
-6e-07 9.98e-05 0.0003653 0.0001662 0.0001945 0.0002885 0.0003545 0.000302
0.0001775 0.0003781 0.0002973 0.0001146 0.0001414 3.89e-05 0.0001793 0.0003176
0.0001347 8.23e-05 0.0002913 0.0001453 -2.295e-05 0.0002563 7.16e-05 -7.02e-05
0.0002242 4.46e-05 -0.0001125 0.0002987 0.0001698 -0.0001044 0.0002224 -1.645e-05
-7.89e-05 0.0001765 -0.000184 -0.000121 0.0001354 0.0001003 -0.0004663 0.0001713
0.0001674 -0.0002615 0.0001208 -0.0001291 -0.0002797 0.00011575 -0.0003834 -0.000423
4.18e-05 0.0001515 -0.000641 4.03e-05 0.000212 -0.0005097 -4.14e-05 -4.95e-06
-0.0005317 -6.616e-05 -0.0002403 -0.000596 0.001524 0.00241 0.002235 0.001561
00000000: f81e 291d 4f1c cd1e f01c f51d 961e 101d
00000010: 471e 831e 601d 781e 2a1e 9d1d bf1e 871e
00000020: d71c bc1f 941e 9b1c 981f 7a1e 681c 4a1f
00000030: 5d1e c51c 4c1f bb1e b41c 0b20 a61e 781c
00000040: aa1f 6b1e b51c c21f 311e f71c ea1f 9c1e
00000050: b61c 0620 881e 981c e91f 851e 801c 0220
00000060: 7a1e cf1c 1820 6b1e c11c 0020 6c1e 791c
00000070: 0420 541e 3e1c 1b20 5d1e 611c 3020 7786
00000080: b785 d688 db85 a285 0588 6586 bc85 c588
00000090: 6e87 0186 0c89 3088 9e85 5289 7886 f586
000000a0: 9489 b486 3f86 168a da86 7585 4b8a 1c87
000000b0: 2f86 568a e687 b786 038a 5f88 3f85 3f8a
000000c0: b688 cc83 e289 1289 0f84 b789 7e88 8e86
000000d0: 558a 7888 3b84 cc89 1788 d183 3189 f587
000000e0: 2484 f588 c488 4c86 568a 9088 2884 b189
000000f0: 4c88 9c83 5c89 2188 ee83 2489 1780 3501
00000100: 4402 1b00 a101 c901 2800 d201 ba00 4380
00000110: ba01 4c80 0b00 5a01 c681 1080 9901 7180
00000120: e580 ff02 eb80 3d81 4903 d280 2f81 4a03
00000130: 3c81 0e81 9001 1481 0181 a302 4c80 7b80
00000140: 0a03 cf81 1d80 1103 8f82 cd80 6701 e180
00000150: cd80 8401 dd81 9e80 0202 9382 7880 1501
00000160: 8a82 7680 1d01 f781 7980 3801 9e81 2080
00000170: d701 7581 0580 9201 4b81 0488 d404 b689
00000180: 0a80 8a06 fc0d 7209 600a ba0c cf0d f30c
00000190: d109 320e df0c 8307 a208 8d02 e009 340d
000001a0: 6a08 6505 c60c c308 8181 330c b104 9a84
000001b0: 590b ec02 5f87 e50c 9009 d886 4a0b 1481
000001c0: 2c85 c909 088a ee87 7008 9306 a48f 9d09
000001d0: 7c09 498c eb07 3b88 958c 9607 488e ee8e
000001e0: bd02 f708 4091 a402 f20a 2d90 b782 5380
000001f0: 5b90 5684 e08b e290 3e16 f018 9418 6516

while/MatMul_14 f2 [128, 32]
-0.1187 0.2119 0.1853 -0.1338 0.3962 0.1984 -0.1964 -0.484
-0.168 0.2937 0.02484 0.371 0.1996 0.1052 0.1432 0.306
0.2141 -0.1824 -0.433 0.335 -0.2478 0.135 -0.425 0.4585
0.0503 -0.11176 -0.3525 -0.4568 0.1313 -0.3113 0.2563 -0.2578
0.1107 -0.27 0.0812 0.02092 0.00394 -0.0271 0.0748 0.3123
-0.0412 -0.089 -0.2264 -0.04333 0.02596 0.04153 -0.009636 -0.03674
-0.07007 0.00861 0.11755 -0.0792 0.1666 -0.2218 0.03065 -0.2524
0.02765 -0.1345 -0.02527 0.11444 -0.03076 0.2319 0.05258 0.02042
-0.06104 0.3286 -0.0836 -0.1265 0.11383 0.05124 0.04114 0.09863
0.0731 0.04065 0.02963 0.1565 -0.095 0.1632 -0.252 0.0808
0.2615 -0.02437 -0.0278 0.1129 -0.0771 -0.3518 0.04526 -0.09576
-0.2578 0.1461 -0.0406 0.08826 -0.3972 -0.1455 -0.2559 0.1492
-0.0596 -0.194 -0.12146 0.1328 -0.0636 0.01005 0.0629 0.09906
-0.05304 -0.1976 -0.09784 0.006634 0.08295 0.07294 -0.1553 -0.1788
0.0398 -0.1544 0.007748 -0.1416 0.184 -0.1901 0.09235 0.0728
-0.04398 0.1791 0.2155 0.04965 -0.2343 0.1543 -0.01476 0.1573
-0.577 0.0981 -0.0401 -0.0445 0.05908 0.0643 -0.3394 -0.2197
-0.1533 -0.0483 0.1415 0.1405 0.0176 0.1333 0.2117 0.0861
0.3289 -0.1477 -0.1299 0.136 -0.2422 0.1252 -0.08966 0.0746
0.1877 -0.005554 -0.2367 -0.2069 0.1896 -0.2153 0.04443 0.00716
0.05234 -0.008095 -0.274 -0.03445 -0.174 0.01395 0.341 0.1638
0.2551 -0.02676 -0.01903 -0.0804 -0.112 -0.02553 -0.1735 -0.0924
-0.1302 0.2363 0.2869 -0.05133 0.06995 -0.2041 0.1438 -0.1023
-0.0563 0.05756 0.1384 0.1383 0.07965 0.05124 -0.1226 0.1642
-0.337 0.0492 0.1956 -0.00877 0.3457 0.1338 -0.2742 -0.447
-0.3079 0.01694 0.0719 0.3806 0.01857 -0.04242 0.01828 0.2517
0.1954 -0.2632 -0.2317 0.3464 -0.1823 0.2874 -0.242 0.2864
0.0436 -0.2269 -0.3662 -0.2097 0.1466 -0.0998 0.231 -0.1931
0.2219 0.1619 -0.1449 -0.16 -0.01416 0.3662 0.1658 -0.01717
0.02203 0.0728 0.1736 -0.003714 -0.126 0.2019 -0.02342 0.0958
0.1045 0.1187 -0.0388 0.02606 -0.1903 0.1422 0.171 -0.1447
-0.06027 0.0829 0.09875 0.0757 -0.1312 0.1055 -0.06042 0.06055
00000000: 99af c832 ee31 48b0 5736 5932 49b2 beb7
00000010: 60b1 b334 5c26 f035 6332 bc2e 9530 e534
00000020: da32 d6b1 eeb6 5c35 eeb3 5230 cdb6 5637
00000030: 702a 27af a4b5 4fb7 3430 fbb4 1a34 20b4
00000040: 162f 52b4 322d 5b25 091c f0a6 ca2c ff34
00000050: 46a9 b2ad 3fb3 8ca9 a526 5129 efa0 b4a8
00000060: 7cac 6920 862f 12ad 5531 19b3 d927 0ab4
00000070: 1427 4eb0 78a6 532f e0a7 6c33 bb2a 3a25
00000080: d0ab 4235 5aad 0cb0 492f 8f2a 4429 502e
00000090: ae2c 3429 9627 0231 14ae 3931 08b4 2c2d
000000a0: 2f34 3da6 1ea7 3a2f efac a1b5 cb29 21ae
000000b0: 20b4 ad30 32a9 a62d 5bb6 a8b0 18b4 c630
000000c0: a1ab 35b2 c6af 4030 12ac 2521 072c 572e
000000d0: caaa 53b2 43ae cb1e 4f2d ab2c f8b0 b9b1
000000e0: 1829 f1b0 ef1f 88b0 e331 15b2 e92d a92c
000000f0: a1a9 bb31 e532 5b2a 7fb3 f030 8fa3 0931
00000100: 9eb8 472e 22a9 b2a9 902b 1d2c 6eb5 08b3
00000110: e8b0 2faa 8730 7f30 8124 4430 c632 832d
00000120: 4335 bab0 28b0 5a30 c0b3 0230 bdad c62c
00000130: 0232 b09d 93b3 9fb2 1132 e4b2 b029 551f
00000140: b32a 25a0 62b4 69a8 91b1 2423 7535 3e31
00000150: 1534 daa6 dfa4 25ad 2baf 89a6 8db1 eaad
00000160: 2bb0 9033 9734 92aa 7a2c 88b2 9a30 8cae
00000170: 35ab 5e2b 6e30 6d30 192d 8f2a d9af 4131
00000180: 64b5 4c2a 4232 7ea0 8835 4830 63b4 27b7
00000190: edb4 5624 9a2c 1736 c124 6ea9 ae24 0734
000001a0: 4132 36b4 6ab3 8b35 d5b1 9934 beb3 9534
000001b0: 9529 43b3 dcb5 b6b2 b130 63ae 6433 2eb2
000001c0: 1a33 2e31 a3b0 1fb1 40a3 dc35 4e31 65a4
000001d0: a425 a92c 8e31 9b9b 08b0 7632 ffa5 222e
000001e0: b02e 992f f7a8 ac26 17b2 8d30 7931 a1b0
000001f0: b7ab 4e2d 522e d82c 33b0 c12e bcab c02b

while/MatMul3 f2 [128, 64]
0.001714 -0.001117 -0.000728 -3.636e-05 -0.002377 -0.001494 -0.00224 0.0003214
-0.002207 -0.00104 0.0004745 0.0002596 -0.0001824 0.0001854 -0.005096 -0.001968
0.0003529 -0.000878 -0.001369 -0.00172 0.003487 -0.00503 0.00265 0.001133
0.000392 0.0004485 0.0007143 -0.002708 0.001374 0.000678 0.0003364 0.001963
-0.0004032 -0.0008454 0.002659 -0.001045 0.00454 0.001474 -0.005665 -0.0003006
-0.001031 0.001174 -0.001834 0.00281 0.001483 0.0002444 -0.00511 0.0059
0.0006204 0.01021 0.013115 -0.0006003 -0.001365 -0.001127 2.354e-05 0.0008073
-0.000422 -0.0008945 0.002634 9.3e-06 -0.00137 -0.001179 -0.00222 0.0002465
0.00381 0.000391 0.000306 -0.001539 -0.00059 0.0014 -0.00166 -0.002146
-0.0002148 0.00251 -0.0006404 -7.683e-05 0.0004516 -0.0004778 -1.63e-05 -0.001112
0.0006332 0.0002364 8.035e-05 0.0011215 -0.003548 -0.00056 -7.2e-06 -0.00073
0.00158 0.0002403 -0.0004487 -0.0002744 -0.001431 0.0001541 0.002245 -0.000982
0.002502 -0.0002756 0.0005293 -0.0008087 -0.001454 -0.000714 0.000791 0.0001549
-0.00011 -0.0002553 -0.00422 -0.002703 -0.001046 -0.00011253 -0.002441 -0.001117
0.0001236 0.0008354 0.002361 -0.000245 0.001555 0.0008035 0.002125 -0.00141
-0.001623 0.000652 -0.00239 -0.001365 -0.00275 0.000639 0.002268 3.49e-05
-0.005238 -0.000481 0.0007553 0.002392 0.0004694 0.0001639 -0.001105 0.00196
-0.0003471 -0.002035 -0.0007434 -0.0001639 0.0005946 -0.001447 0.001779 -0.000795
-0.00212 0.001055 -0.000603 -0.0003328 0.006973 -0.001417 -0.000541 0.0002728
0.001984 0.0005746 -0.0001827 0.001506 -0.0005374 -0.000993 -0.001083 -0.0016
-0.0001746 0.000879 0.002804 -0.003117 -0.001424 0.0005083 -0.00215 -0.000934
-0.0003047 -0.000564 0.00428 0.002993 0.001256 -0.002707 0.001634 -0.002884
-3.04e-06 -0.0005774 -0.000927 0.001224 -0.0003471 0.0004404 0.00091 0.00178
0.0011 -9.6e-06 0.0022 -0.0001289 0.001105 0.002663 -0.001407 -0.0003424
-0.000351 9.96e-05 2.68e-05 9.45e-05 0.0001352 5.41e-05 6.545e-05 4.613e-05
9.71e-05 2.605e-05 -4.935e-05 4.63e-05 -1.764e-05 2.05e-05 -7.5e-06 9.29e-05
1.83e-05 2.15e-06 0.00011575 0.000214 0.0001231 -7.45e-06 8.47e-05 -0.0002203
8.12e-05 3.01e-05 -3.04e-06 0.0002041 1.97e-06 -2e-05 -0.0001285 -0.0001439
-7.46e-05 -0.0001391 -7.22e-05 7.53e-05 -6.89e-05 -4.375e-05 -0.000208 0.0001057
3.4e-06 -3.31e-05 3.153e-05 -5.63e-05 -0.00011724 0.0001373 4.286e-05 7.09e-05
5.764e-05 -0.000128 -0.0004337 -0.000124 0.00010806 0.0001436 8.17e-06 0.0001687
0.000179 0.00010586 -0.0003214 -5.364e-05 -0.000286 5.203e-05 -7.2e-06 3.46e-06
00000000: 0517 9394 f791 6282 de98 1f96 9698 440d
00000010: 8598 4394 c60f 410c fa89 130a 389d 0898
00000020: c80d 3193 9c95 0c97 241b 279d 6d19 a414
00000030: 6c0e 590f da11 8c99 a115 8e11 830d 0518
00000040: 9b8e ed92 7219 4894 a61c 0a16 cd9d ed8c
00000050: 3994 cf14 8397 c119 1316 010c 3c9d 0b1e
00000060: 1511 3a21 b722 eb90 9795 9e94 8b01 9d12
00000070: ea8e 5493 6519 9c00 9d95 d494 8c98 0a0c
00000080: ce1b 680e 030d 4e96 d590 bc15 cd96 6598
00000090: 0a8b 2419 3f91 0985 660f d48f 1181 8e94
000000a0: 3011 bf0b 4405 9814 449b 9690 7980 fb91
000000b0: 7916 e00b 5a8f 7f8c dd95 0d09 9918 0694
000000c0: 2019 848c 5610 a092 f595 d991 7b12 1309
000000d0: 3587 2f8c 529c 8999 4994 6087 0099 9394
000000e0: 0d08 d812 d618 048c 5f16 9512 5a18 c695
000000f0: a696 5711 e598 9795 a299 3c11 a518 4a02
00000100: 5d9d e18f 3012 e618 b10f 5f09 8794 0418
00000110: b08d 2b98 1792 5f89 df10 ed95 4917 8392
00000120: 5798 5214 f190 748d 241f ce95 6f90 780c
00000130: 1018 b510 fd89 2b16 6790 1194 7094 8e96
00000140: b989 3313 be19 629a d595 2a10 6798 a793
00000150: fe8c 9f90 621c 211a 2515 8b99 b116 e899
00000160: 3380 bb90 9893 0315 b08d 370f 7413 4a17
00000170: 8114 a180 8118 3988 8714 7419 c395 9c8d
00000180: c08d 8706 c201 3106 6e08 8c03 4a04 0603
00000190: 5d06 b501 3c83 0903 2881 5801 7e80 1706
000001a0: 3301 2400 9607 030b 0908 7d80 8d05 388b
000001b0: 5205 f901 3380 b00a 2100 5081 3688 b788
000001c0: e484 8f88 bb84 ef04 8484 de82 d18a ed06
000001d0: 3900 2b82 1102 b183 af87 8008 cf02 a604
000001e0: c703 3288 1b8f 1088 1507 b508 8900 8709
000001f0: de09 f006 448d 8483 b08c 6903 7980 3a00

while/MatMul_18 f2 [64, 16]
-0.0851 -0.03108 0.2079 -0.02965 -0.2402 0.1921 -0.05017 -0.481
0.141 -0.1339 -0.006706 -0.1543 -0.05145 -0.3438 -0.1257 0.1514
0.0465 0.08984 0.1173 0.1942 -0.1226 -0.1593 0.08093 0.093
-0.2114 -0.0818 0.0526 0.0801 0.1421 0.2181 0.3074 -0.1188
-0.495 0.0508 -0.1266 -0.03967 0.02275 -0.3303 0.08057 -0.312
-0.06137 -0.0305 0.352 0.1348 0.08746 0.001844 0.3062 0.2106
-0.01617 0.132 -0.07196 -0.2673 -0.04767 0.11304 0.1118 -0.2761
-0.03564 -0.2052 0.10876 0.2155 -0.1511 -0.1232 -0.1051 0.1092
0.514 0.0619 0.2412 -0.006714 0.1609 0.2576 -0.2805 0.1952
0.7026 0.0961 -0.05927 -0.04395 0.0457 0.277 -0.2002 -0.1295
0.1239 -0.1328 -0.1577 0.2155 -0.2551 -0.1102 0.1708 -0.1393
-0.2208 -0.333 0.2283 -0.03558 -0.03934 -0.0946 0.0592 0.158
0.1536 0.04437 -0.2205 -0.11273 -0.392 0.1925 0.0793 -0.11426
0.1351 -0.1067 0.1357 0.1231 -0.2151 0.01155 -0.1159 0.0005674
0.1471 -0.2202 -0.1007 0.1385 0.04456 0.0822 0.1343 -0.1366
0.3145 0.03008 -0.223 -0.1271 -0.0337 -0.07336 0.0256 0.0637
-0.0226 0.002447 0.06012 0.1416 0.3967 -0.00984 0.1186 0.10315
0.00423 0.427 -0.01492 0.4253 0.3596 0.0296 0.2156 0.06805
0.1991 0.0684 -0.1231 -0.1885 0.2507 0.1417 -0.12384 0.2668
0.11456 -0.0853 -0.2079 -0.02133 0.04633 -0.013916 -0.222 -0.1118
0.0997 0.0734 0.2837 0.258 0.0782 -0.04562 -0.006947 -0.208
-0.2216 0.0176 0.03925 0.2673 0.0562 -0.05573 0.09094 -0.04858
-0.06964 -0.1378 -0.3086 -0.1514 -0.3276 -0.149 -0.0258 -0.2401
-0.1177 -0.0354 -0.1119 -0.0492 -0.332 -0.03653 0.02533 0.02037
0.00997 0.1255 -0.1266 -0.2161 0.1824 0.244 -0.02228 0.06155
0.578 0.1422 -0.12 -0.1669 -0.2446 0.205 -0.0597 0.04623
-0.08496 -0.2695 -0.2634 -0.4592 -0.2605 -0.2078 -0.02655 -0.09247
-0.1393 -0.174 0.0254 0.1584 -0.3242 0.05725 0.10693 -0.0348
-0.01747 0.00876 -0.09973 0.01325 0.10626 0.06274 -0.1221 -0.1693
0.1199 0.05048 -0.0503 0.03915 0.0894 0.07043 -0.1385 0.10864
-0.01197 -0.03387 -0.00671 0.1268 -0.3914 -0.3506 0.09656 -0.04825
-0.1394 0.1605 0.05386 -0.2463 0.1858 -0.388 0.02339 0.2114
00000000: 72ad f5a7 a732 97a7 b0b3 2632 6caa b2b7
00000010: 8330 49b0 de9e f0b0 96aa 80b5 06b0 d830
00000020: f429 c02d 822f 3732 d9af 19b1 2e2d f42d
00000030: c4b2 3cad bc2a 202d 8c30 fb32 eb34 9aaf
00000040: ecb7 812a 0db0 14a9 d325 49b5 282d feb4
00000050: dbab cfa7 a235 5030 992d 8e17 e634 bd32
00000060: 24a4 3930 9bac 47b4 1aaa 3c2f 282f 6bb4
00000070: 90a8 91b2 f62e e532 d6b0 e3af baae fd2e
00000080: 1d38 ec2b b833 e09e 2631 1f34 7db4 3f32
00000090: 9f39 272e 96ab a0a9 d929 6f34 68b2 25b0
000000a0: ee2f 40b0 0cb1 e532 15b4 0eaf 7731 75b0
000000b0: 11b3 54b5 4e33 8ea8 09a9 0eae 942b 0e31
000000c0: ea30 ae29 0eb3 37af 46b6 2932 132d 50af
000000d0: 5330 d4ae 5830 e12f e2b2 ea21 6baf a610
000000e0: b530 0cb3 72ae 6f30 b429 432d 4c30 5fb0
000000f0: 0835 b327 23b3 11b0 50a8 b2ac 8e26 142c
00000100: c9a5 0319 b22b 8830 5936 0aa1 972f 9a2e
00000110: 551c d536 a4a3 ce36 c135 9427 e632 5b2c
00000120: 5f32 612c e1af 08b2 0334 8930 edaf 4534
00000130: 552f 76ad a7b2 76a5 ee29 20a3 1bb3 28af
00000140: 612e b32c 8a34 2134 012d d7a9 1d9f a8b2
00000150: 17b3 8124 0629 4734 322b 22ab d22d 38aa
00000160: 75ac 69b0 f0b4 d8b0 3eb5 c5b0 9ba6 afb3
00000170: 88af 88a8 29af 4caa 50b5 ada8 7c26 3725
00000180: 1b21 0430 0db0 eab2 d631 cf33 b4a5 e12b
00000190: a038 8d30 aeaf 57b1 d4b3 8f32 a4ab eb29
000001a0: 70ad 50b4 37b4 59b7 2bb4 a6b2 cca6 ebad
000001b0: 75b0 91b1 8126 1231 30b5 542b d82e 74a8
000001c0: 79a4 7c20 62ae c922 cd2e 042c d0af 6bb1
000001d0: ac2f 762a 70aa 0329 b92d 822c 6fb0 f42e
000001e0: 21a2 56a8 df9e 0f30 43b6 9cb5 2e2e 2daa
000001f0: 76b0 2331 e52a e2b3 f231 35b6 fd25 c432

while/MatMul6 f2 [64, 32]
0.003735 -0.00201 0.0008945 -0.0001888 0.002087 -0.001192 -0.001424 -0.001863
0.0002251 0.0008903 0.001367 -0.00175 -0.0008516 0.0003579 8.88e-05 0.003681
-0.001107 -0.002642 -0.0005593 -0.0004683 0.001768 -0.0004916 -0.0004935 0.001461
0.004246 -0.006187 -0.001709 -0.0002058 0.003376 -0.000898 0.000804 -0.001276
-0.005142 -0.0006595 0.012146 0.0001616 0.003382 -0.0052 -0.00683 0.006073
0.003311 -0.01208 -0.005093 0.001801 0.003355 0.001556 0.0005455 -0.011635
0.000175 -0.003166 0.003393 -0.0005765 0.00891 -0.004044 0.0001438 0.003468
0.002928 0.003624 -3.76e-06 0.000823 0.00198 0.0005813 0.0008054 0.00156
-0.002449 0.01264 -0.002613 0.002235 0.00048 0.002905 0.002653 0.002785
0.00533 -0.004364 -0.0003462 0.007053 0.006184 0.005093 -0.003582 -0.0004745
0.003323 -0.00903 0.0003428 0.002867 -0.003777 -0.00284 0.001993 -0.005028
-0.01523 0.00909 -0.00159 -0.000316 -0.01121 -0.00867 -0.002104 0.001633
-0.0001553 0.005737 0.00143 0.002375 -0.001685 -0.003546 0.002586 0.00546
0.002449 -0.005936 -0.001193 -0.0003452 0.0001596 1.8e-06 -0.004803 -0.005913
-0.001367 -0.002068 0.00198 -0.002258 0.001118 -0.00285 0.00384 -0.00627
-0.00883 0.005848 0.00812 0.002224 -0.00284 -0.0015335 -0.0009356 0.003183
0.000507 -0.01682 0.005085 -0.003735 0.0003867 -0.003508 -0.01005 -0.0081
-0.00929 0.0055 -4.095e-05 -0.007008 -0.005066 -0.00474 0.009315 0.005516
-0.00237 0.00647 -0.00329 0.0003643 0.005135 0.005016 -0.00668 0.011795
0.02042 -0.01153 -0.00451 -0.00472 0.01159 0.010056 0.0007024 -0.006535
-0.006645 -0.001798 0.00702 -0.0006065 0.003077 -0.002449 -0.00288 0.0001419
0.003773 -0.00356 -0.006878 0.002762 0.002682 0.001592 0.001623 0.004726
0.001837 -0.00435 0.003002 0.000966 0.00901 -0.001569 -0.000798 0.007214
0.003265 0.0002036 -0.00735 -0.0008116 -8.786e-05 0.0003045 2.15e-06 -0.002241
-0.000767 -0.003687 0.002419 -2.2e-05 -0.000604 -0.0002346 -0.003822 -0.003641
-0.001429 -0.0008655 0.001448 -0.000347 -0.001005 -0.00012034 0.003052 0.002064
-0.000596 0.00279 0.000645 0.000509 0.0006003 0.0003483 -0.0008593 0.005833
0.006126 -0.004677 -0.003588 0.0006723 0.001353 0.001882 -0.0009236 -0.00145
0.002718 -0.00839 -0.00421 -0.002123 0.000755 0.003744 -0.001591 -0.005707
-0.004932 0.00933 0.0001569 -0.0016985 -0.003271 -0.001074 0.004333 0.01205
-0.0003848 0.003756 -0.004177 -0.001277 0.0009236 0.002821 -0.002497 0.002647
0.01526 -0.009254 -0.004032 -0.000977 0.00498 0.0001664 0.0008564 -0.004616
00000000: a61b 1e98 5413 308a 4618 e294 d595 a197
00000010: 600b 4b13 9915 2b97 fa92 dd0d d205 8a1b
00000020: 8994 6999 9590 ac8f 3e17 0790 0b90 fc15
00000030: 591c 569e 0097 be8a ea1a 5b93 9612 3a95
00000040: 449d 6791 3822 4c09 ed1a 539d fe9e 381e
00000050: c81a 2fa2 379d 6017 df1a 6016 7810 f5a1
00000060: bc09 7c9a f31a b990 9020 249c b608 1a1b
00000070: ff19 6c1b 3f80 be12 0e18 c310 9912 6416
00000080: 0499 7922 5a99 9418 dd0f f319 6f19 b419
00000090: 751d 789c ac8d 391f 551e 371d 569b c68f
000000a0: ce1a a0a0 9e0d df19 bc9b d199 1518 269d
000000b0: cca3 a720 8396 2d8d bda1 70a0 4f98 b016
000000c0: 1789 e01d db15 dd18 e796 439b 4c19 971d
000000d0: 0419 149e e394 a88d 3b09 1e00 eb9c 0e9e
000000e0: 9995 3c98 0e18 a098 9414 d699 dd1b 6c9e
000000f0: 85a0 fd1d 2820 8e18 d199 4896 aa93 851a
00000100: 2710 4ea4 351d a69b 560e 2f9b 25a1 26a0
00000110: c2a0 a21d af82 2d9f 309d db9c c520 a61d
00000120: db98 a01e bd9a f80d 421d 231d d79e 0a22
00000130: 3a25 e7a1 9e9c d59c ef21 2621 c111 b19e
00000140: ce9e 5d97 301f f890 4d1a 0499 e699 a608
00000150: ba1b 4a9b 0b9f a819 7e19 8516 a616 d71c
00000160: 8617 749c 261a ea13 9d20 6d96 8a92 631f
00000170: b01a ac0a 879f a692 c285 fd0c 2400 9798
00000180: 4992 8d9b f418 7181 f390 b08b d49b 759b
00000190: da95 1793 ee15 af8d 1e94 e387 401a 3a18
000001a0: e290 b719 4911 2b10 eb10 b50d 0a93 f91d
000001b0: 461e ca9c 599b 8211 8b15 b517 9193 f095
000001c0: 9119 4ca0 509c 5998 2f12 ab1b 8496 d89d
000001d0: 0d9d c720 2409 f596 b39a 6694 701c 2b22
000001e0: 4e8e b11b 479c 3b95 9113 c719 1d99 6c19
000001f0: d023 bda0 219c 0094 191d 7409 0413 ba9c
